C:\Users\kimJuhwan\anaconda3\envs\pytorch\python.exe E:\github\simclrExe\main_with_originalres.py
Files already downloaded and verified
Files already downloaded and verified
===============================================================================================
Layer (type:depth-idx)                        Output Shape              Param #
===============================================================================================
Sequential                                    [1024, 64]                --
├─ResNet: 1-1                                 [1024, 64]                --
│    └─Conv2d: 2-1                            [1024, 64, 16, 16]        9,408
│    └─BatchNorm2d: 2-2                       [1024, 64, 16, 16]        128
│    └─ReLU: 2-3                              [1024, 64, 16, 16]        --
│    └─MaxPool2d: 2-4                         [1024, 64, 8, 8]          --
│    └─Sequential: 2-5                        [1024, 64, 8, 8]          --
│    │    └─BasicBlock: 3-1                   [1024, 64, 8, 8]          73,984
│    │    └─BasicBlock: 3-2                   [1024, 64, 8, 8]          73,984
│    └─Sequential: 2-6                        [1024, 128, 4, 4]         --
│    │    └─BasicBlock: 3-3                   [1024, 128, 4, 4]         230,144
│    │    └─BasicBlock: 3-4                   [1024, 128, 4, 4]         295,424
│    └─Sequential: 2-7                        [1024, 256, 2, 2]         --
│    │    └─BasicBlock: 3-5                   [1024, 256, 2, 2]         919,040
│    │    └─BasicBlock: 3-6                   [1024, 256, 2, 2]         1,180,672
│    └─Sequential: 2-8                        [1024, 512, 1, 1]         --
│    │    └─BasicBlock: 3-7                   [1024, 512, 1, 1]         3,673,088
│    │    └─BasicBlock: 3-8                   [1024, 512, 1, 1]         4,720,640
│    └─AdaptiveAvgPool2d: 2-9                 [1024, 512, 1, 1]         --
│    └─Linear: 2-10                           [1024, 64]                32,832
├─SimpleMLP: 1-2                              [1024, 64]                --
│    └─Linear: 2-11                           [1024, 64]                4,160
│    └─ReLU: 2-12                             [1024, 64]                --
│    └─Linear: 2-13                           [1024, 64]                4,160
===============================================================================================
Total params: 11,217,664
Trainable params: 11,217,664
Non-trainable params: 0
Total mult-adds (Units.GIGABYTES): 37.95
===============================================================================================
Input size (MB): 12.58
Forward/backward pass size (MB): 832.05
Params size (MB): 44.87
Estimated Total Size (MB): 889.50
…
