C:\Users\kimJuhwan\anaconda3\envs\pytorch\python.exe E:\github\simclrExe\main_sgd.py 
Files already downloaded and verified
Files already downloaded and verified
===============================================================================================
Layer (type:depth-idx)                        Output Shape              Param #
===============================================================================================
SimCLR                                        [64, 512]                 --
├─ResNet: 1-1                                 [64, 512]                 --
│    └─Conv2d: 2-1                            [64, 64, 32, 32]          1,728
│    └─BatchNorm2d: 2-2                       [64, 64, 32, 32]          128
│    └─ReLU: 2-3                              [64, 64, 32, 32]          --
│    └─Identity: 2-4                          [64, 64, 32, 32]          --
│    └─Sequential: 2-5                        [64, 64, 32, 32]          --
│    │    └─BasicBlock: 3-1                   [64, 64, 32, 32]          73,984
│    │    └─BasicBlock: 3-2                   [64, 64, 32, 32]          73,984
│    └─Sequential: 2-6                        [64, 128, 16, 16]         --
│    │    └─BasicBlock: 3-3                   [64, 128, 16, 16]         230,144
│    │    └─BasicBlock: 3-4                   [64, 128, 16, 16]         295,424
│    └─Sequential: 2-7                        [64, 256, 8, 8]           --
│    │    └─BasicBlock: 3-5                   [64, 256, 8, 8]           919,040
│    │    └─BasicBlock: 3-6                   [64, 256, 8, 8]           1,180,672
│    └─Sequential: 2-8                        [64, 512, 4, 4]           --
│    │    └─BasicBlock: 3-7                   [64, 512, 4, 4]           3,673,088
│    │    └─BasicBlock: 3-8                   [64, 512, 4, 4]           4,720,640
│    └─AdaptiveAvgPool2d: 2-9                 [64, 512, 1, 1]           --
│    └─Identity: 2-10                         [64, 512]                 --
├─Sequential: 1-2                             [64, 128]                 --
│    └─Linear: 2-11                           [64, 512]                 262,144
│    └─ReLU: 2-12                             [64, 512]                 --
│    └─Linear: 2-13                           [64, 128]                 65,536
===============================================================================================
Total params: 11,496,512
Trainable params: 11,496,512
Non-trainable params: 0
Total mult-adds (Units.GIGABYTES): 35.57
===============================================================================================
Input size (MB): 0.79
Forward/backward pass size (MB): 629.47
Params size (MB): 45.99
Estimated Total Size (MB): 676.25
…
