…
C:\Users\kimJuhwan\anaconda3\envs\pytorch\lib\site-packages\torchvision\models\_utils.py:223: UserWarning: Arguments other than a weight enum or `None` for 'weights' are deprecated since 0.13 and may be removed in the future. The current behavior is equivalent to passing `weights=ResNet18_Weights.IMAGENET1K_V1`. You can also use `weights=ResNet18_Weights.DEFAULT` to get the most up-to-date weights.
  warnings.warn(msg)
===============================================================================================
Layer (type:depth-idx)                        Output Shape              Param #
===============================================================================================
Sequential                                    [512, 10]                 --
├─ResNet: 1-1                                 [512, 32]                 --
│    └─Conv2d: 2-1                            [512, 64, 16, 16]         9,408
│    └─BatchNorm2d: 2-2                       [512, 64, 16, 16]         128
│    └─ReLU: 2-3                              [512, 64, 16, 16]         --
│    └─MaxPool2d: 2-4                         [512, 64, 8, 8]           --
│    └─Sequential: 2-5                        [512, 64, 8, 8]           --
│    │    └─BasicBlock: 3-1                   [512, 64, 8, 8]           73,984
│    │    └─BasicBlock: 3-2                   [512, 64, 8, 8]           73,984
│    └─Sequential: 2-6                        [512, 128, 4, 4]          --
│    │    └─BasicBlock: 3-3                   [512, 128, 4, 4]          230,144
│    │    └─BasicBlock: 3-4                   [512, 128, 4, 4]          295,424
│    └─Sequential: 2-7                        [512, 256, 2, 2]          --
│    │    └─BasicBlock: 3-5                   [512, 256, 2, 2]          919,040
│    │    └─BasicBlock: 3-6                   [512, 256, 2, 2]          1,180,672
│    └─Sequential: 2-8                        [512, 512, 1, 1]          --
│    │    └─BasicBlock: 3-7                   [512, 512, 1, 1]          3,673,088
│    │    └─BasicBlock: 3-8                   [512, 512, 1, 1]          4,720,640
│    └─AdaptiveAvgPool2d: 2-9                 [512, 512, 1, 1]          --
│    └─Linear: 2-10                           [512, 32]                 16,416
├─SimpleMLP: 1-2                              [512, 10]                 --
│    └─Linear: 2-11                           [512, 10]                 330
│    └─ReLU: 2-12                             [512, 10]                 --
│    └─Linear: 2-13                           [512, 10]                 110
===============================================================================================
Total params: 11,193,368
Trainable params: 11,193,368
Non-trainable params: 0
Total mult-adds (G): 18.96
===============================================================================================
Input size (MB): 6.29
Forward/backward pass size (MB): 415.45
Params size (MB): 44.77
Estimated Total Size (MB): 466.51
…
