…
C:\Users\kimJuhwan\anaconda3\envs\pytorch\lib\site-packages\torchvision\models\_utils.py:223: UserWarning: Arguments other than a weight enum or `None` for 'weights' are deprecated since 0.13 and may be removed in the future. The current behavior is equivalent to passing `weights=None`.
  warnings.warn(msg)
==========================================================================================
Layer (type:depth-idx)                   Output Shape              Param #
==========================================================================================
ResNet                                   [500, 32]                 --
├─Conv2d: 1-1                            [500, 64, 16, 16]         9,408
├─BatchNorm2d: 1-2                       [500, 64, 16, 16]         128
├─ReLU: 1-3                              [500, 64, 16, 16]         --
├─MaxPool2d: 1-4                         [500, 64, 8, 8]           --
├─Sequential: 1-5                        [500, 64, 8, 8]           --
│    └─BasicBlock: 2-1                   [500, 64, 8, 8]           --
│    │    └─Conv2d: 3-1                  [500, 64, 8, 8]           36,864
│    │    └─BatchNorm2d: 3-2             [500, 64, 8, 8]           128
│    │    └─ReLU: 3-3                    [500, 64, 8, 8]           --
│    │    └─Conv2d: 3-4                  [500, 64, 8, 8]           36,864
│    │    └─BatchNorm2d: 3-5             [500, 64, 8, 8]           128
│    │    └─ReLU: 3-6                    [500, 64, 8, 8]           --
│    └─BasicBlock: 2-2                   [500, 64, 8, 8]           --
│    │    └─Conv2d: 3-7                  [500, 64, 8, 8]           36,864
│    │    └─BatchNorm2d: 3-8             [500, 64, 8, 8]           128
│    │    └─ReLU: 3-9                    [500, 64, 8, 8]           --
│    │    └─Conv2d: 3-10                 [500, 64, 8, 8]           36,864
│    │    └─BatchNorm2d: 3-11            [500, 64, 8, 8]           128
│    │    └─ReLU: 3-12                   [500, 64, 8, 8]           --
├─Sequential: 1-6                        [500, 128, 4, 4]          --
│    └─BasicBlock: 2-3                   [500, 128, 4, 4]          --
│    │    └─Conv2d: 3-13                 [500, 128, 4, 4]          73,728
│    │    └─BatchNorm2d: 3-14            [500, 128, 4, 4]          256
│    │    └─ReLU: 3-15                   [500, 128, 4, 4]          --
│    │    └─Conv2d: 3-16                 [500, 128, 4, 4]          147,456
│    │    └─BatchNorm2d: 3-17            [500, 128, 4, 4]          256
│    │    └─Sequential: 3-18             [500, 128, 4, 4]          8,448
│    │    └─ReLU: 3-19                   [500, 128, 4, 4]          --
│    └─BasicBlock: 2-4                   [500, 128, 4, 4]          --
│    │    └─Conv2d: 3-20                 [500, 128, 4, 4]          147,456
│    │    └─BatchNorm2d: 3-21            [500, 128, 4, 4]          256
│    │    └─ReLU: 3-22                   [500, 128, 4, 4]          --
│    │    └─Conv2d: 3-23                 [500, 128, 4, 4]          147,456
│    │    └─BatchNorm2d: 3-24            [500, 128, 4, 4]          256
│    │    └─ReLU: 3-25                   [500, 128, 4, 4]          --
├─Sequential: 1-7                        [500, 256, 2, 2]          --
│    └─BasicBlock: 2-5                   [500, 256, 2, 2]          --
│    │    └─Conv2d: 3-26                 [500, 256, 2, 2]          294,912
│    │    └─BatchNorm2d: 3-27            [500, 256, 2, 2]          512
│    │    └─ReLU: 3-28                   [500, 256, 2, 2]          --
│    │    └─Conv2d: 3-29                 [500, 256, 2, 2]          589,824
│    │    └─BatchNorm2d: 3-30            [500, 256, 2, 2]          512
│    │    └─Sequential: 3-31             [500, 256, 2, 2]          33,280
│    │    └─ReLU: 3-32                   [500, 256, 2, 2]          --
│    └─BasicBlock: 2-6                   [500, 256, 2, 2]          --
│    │    └─Conv2d: 3-33                 [500, 256, 2, 2]          589,824
│    │    └─BatchNorm2d: 3-34            [500, 256, 2, 2]          512
│    │    └─ReLU: 3-35                   [500, 256, 2, 2]          --
│    │    └─Conv2d: 3-36                 [500, 256, 2, 2]          589,824
│    │    └─BatchNorm2d: 3-37            [500, 256, 2, 2]          512
│    │    └─ReLU: 3-38                   [500, 256, 2, 2]          --
├─Sequential: 1-8                        [500, 512, 1, 1]          --
│    └─BasicBlock: 2-7                   [500, 512, 1, 1]          --
│    │    └─Conv2d: 3-39                 [500, 512, 1, 1]          1,179,648
│    │    └─BatchNorm2d: 3-40            [500, 512, 1, 1]          1,024
│    │    └─ReLU: 3-41                   [500, 512, 1, 1]          --
│    │    └─Conv2d: 3-42                 [500, 512, 1, 1]          2,359,296
│    │    └─BatchNorm2d: 3-43            [500, 512, 1, 1]          1,024
│    │    └─Sequential: 3-44             [500, 512, 1, 1]          132,096
│    │    └─ReLU: 3-45                   [500, 512, 1, 1]          --
│    └─BasicBlock: 2-8                   [500, 512, 1, 1]          --
│    │    └─Conv2d: 3-46                 [500, 512, 1, 1]          2,359,296
│    │    └─BatchNorm2d: 3-47            [500, 512, 1, 1]          1,024
│    │    └─ReLU: 3-48                   [500, 512, 1, 1]          --
│    │    └─Conv2d: 3-49                 [500, 512, 1, 1]          2,359,296
│    │    └─BatchNorm2d: 3-50            [500, 512, 1, 1]          1,024
│    │    └─ReLU: 3-51                   [500, 512, 1, 1]          --
├─AdaptiveAvgPool2d: 1-9                 [500, 512, 1, 1]          --
├─Linear: 1-10                           [500, 32]                 16,416
==========================================================================================
Total params: 11,192,928
Trainable params: 11,192,928
Non-trainable params: 0
Total mult-adds (G): 18.52
==========================================================================================
Input size (MB): 6.14
Forward/backward pass size (MB): 405.63
Params size (MB): 44.77
Estimated Total Size (MB): 456.55
…
