특이사항: Horizontal, Vertical Flip 추가


C:\Users\kimJuhwan\anaconda3\envs\pytorch\python.exe E:\github\simclrExe\main.py
Files already downloaded and verified
Files already downloaded and verified
===============================================================================================
Layer (type:depth-idx)                        Output Shape              Param #
===============================================================================================
Sequential                                    [64, 32]                  --
├─Resnet: 1-1                                 [64, 32]                  --
│    └─Conv2d: 2-1                            [64, 64, 16, 16]          9,408
│    └─Sequential: 2-2                        [64, 64, 8, 8]            --
│    │    └─MaxPool2d: 3-1                    [64, 64, 8, 8]            --
│    │    └─ResnetBlock: 3-2                  [64, 64, 8, 8]            73,984
│    │    └─ResnetBlock: 3-3                  [64, 64, 8, 8]            73,984
│    └─Sequential: 2-3                        [64, 128, 8, 8]           --
│    │    └─ResnetBlock: 3-4                  [64, 128, 8, 8]           230,144
│    │    └─ResnetBlock: 3-5                  [64, 128, 8, 8]           295,424
│    │    └─ResnetBlock: 3-6                  [64, 128, 8, 8]           295,424
│    └─Sequential: 2-4                        [64, 256, 8, 8]           --
│    │    └─ResnetBlock: 3-7                  [64, 256, 8, 8]           919,040
│    │    └─ResnetBlock: 3-8                  [64, 256, 8, 8]           1,180,672
│    │    └─ResnetBlock: 3-9                  [64, 256, 8, 8]           1,180,672
│    └─Sequential: 2-5                        [64, 512, 8, 8]           --
│    │    └─ResnetBlock: 3-10                 [64, 512, 8, 8]           3,673,088
│    │    └─ResnetBlock: 3-11                 [64, 512, 8, 8]           4,720,640
│    │    └─ResnetBlock: 3-12                 [64, 512, 8, 8]           4,720,640
│    └─AdaptiveAvgPool2d: 2-6                 [64, 512, 1, 1]           --
│    └─Sequential: 2-7                        [64, 32]                  --
│    │    └─Flatten: 3-13                     [64, 512]                 --
│    │    └─Linear: 3-14                      [64, 32]                  16,416
├─SimpleMLP: 1-2                              [64, 32]                  --
│    └─Linear: 2-8                            [64, 32]                  1,056
│    └─ReLU: 2-9                              [64, 32]                  --
===============================================================================================
Total params: 17,390,592
Trainable params: 17,390,592
Non-trainable params: 0
Total mult-adds (G): 71.22
===============================================================================================
Input size (MB): 0.79
Forward/backward pass size (MB): 436.24
Params size (MB): 69.56
Estimated Total Size (MB): 506.59
…
