C:\Users\kimJuhwan\anaconda3\envs\pytorch\python.exe E:\github\simclrExe\main.py
Files already downloaded and verified
Files already downloaded and verified
==========================================================================================
Layer (type:depth-idx)                   Output Shape              Param #
==========================================================================================
Resnet                                   [500, 32]                 --
├─Sequential: 1-1                        [500, 16, 32, 32]         --
│    └─Conv2d: 2-1                       [500, 16, 32, 32]         432
│    └─BatchNorm2d: 2-2                  [500, 16, 32, 32]         32
│    └─ReLU: 2-3                         [500, 16, 32, 32]         --
├─Sequential: 1-2                        [500, 32, 16, 16]         --
│    └─ResnetBlock: 2-4                  [500, 32, 16, 16]         --
│    │    └─Sequential: 3-1              [500, 32, 16, 16]         13,952
│    │    └─Sequential: 3-2              [500, 32, 16, 16]         576
│    │    └─ReLU: 3-3                    [500, 32, 16, 16]         --
│    └─ResnetBlock: 2-5                  [500, 32, 16, 16]         --
│    │    └─Sequential: 3-4              [500, 32, 16, 16]         18,560
│    │    └─Sequential: 3-5              [500, 32, 16, 16]         --
│    │    └─ReLU: 3-6                    [500, 32, 16, 16]         --
│    └─ResnetBlock: 2-6                  [500, 32, 16, 16]         --
│    │    └─Sequential: 3-7              [500, 32, 16, 16]         18,560
│    │    └─Sequential: 3-8              [500, 32, 16, 16]         --
│    │    └─ReLU: 3-9                    [500, 32, 16, 16]         --
│    └─ResnetBlock: 2-7                  [500, 32, 16, 16]         --
│    │    └─Sequential: 3-10             [500, 32, 16, 16]         18,560
│    │    └─Sequential: 3-11             [500, 32, 16, 16]         --
│    │    └─ReLU: 3-12                   [500, 32, 16, 16]         --
│    └─ResnetBlock: 2-8                  [500, 32, 16, 16]         --
│    │    └─Sequential: 3-13             [500, 32, 16, 16]         18,560
│    │    └─Sequential: 3-14             [500, 32, 16, 16]         --
│    │    └─ReLU: 3-15                   [500, 32, 16, 16]         --
├─Sequential: 1-3                        [500, 64, 8, 8]           --
│    └─ResnetBlock: 2-9                  [500, 64, 8, 8]           --
│    │    └─Sequential: 3-16             [500, 64, 8, 8]           55,552
│    │    └─Sequential: 3-17             [500, 64, 8, 8]           2,176
│    │    └─ReLU: 3-18                   [500, 64, 8, 8]           --
│    └─ResnetBlock: 2-10                 [500, 64, 8, 8]           --
│    │    └─Sequential: 3-19             [500, 64, 8, 8]           73,984
│    │    └─Sequential: 3-20             [500, 64, 8, 8]           --
│    │    └─ReLU: 3-21                   [500, 64, 8, 8]           --
│    └─ResnetBlock: 2-11                 [500, 64, 8, 8]           --
│    │    └─Sequential: 3-22             [500, 64, 8, 8]           73,984
│    │    └─Sequential: 3-23             [500, 64, 8, 8]           --
│    │    └─ReLU: 3-24                   [500, 64, 8, 8]           --
│    └─ResnetBlock: 2-12                 [500, 64, 8, 8]           --
│    │    └─Sequential: 3-25             [500, 64, 8, 8]           73,984
│    │    └─Sequential: 3-26             [500, 64, 8, 8]           --
│    │    └─ReLU: 3-27                   [500, 64, 8, 8]           --
│    └─ResnetBlock: 2-13                 [500, 64, 8, 8]           --
│    │    └─Sequential: 3-28             [500, 64, 8, 8]           73,984
│    │    └─Sequential: 3-29             [500, 64, 8, 8]           --
│    │    └─ReLU: 3-30                   [500, 64, 8, 8]           --
├─Sequential: 1-4                        [500, 128, 4, 4]          --
│    └─ResnetBlock: 2-14                 [500, 128, 4, 4]          --
│    │    └─Sequential: 3-31             [500, 128, 4, 4]          221,696
│    │    └─Sequential: 3-32             [500, 128, 4, 4]          8,448
│    │    └─ReLU: 3-33                   [500, 128, 4, 4]          --
│    └─ResnetBlock: 2-15                 [500, 128, 4, 4]          --
│    │    └─Sequential: 3-34             [500, 128, 4, 4]          295,424
│    │    └─Sequential: 3-35             [500, 128, 4, 4]          --
│    │    └─ReLU: 3-36                   [500, 128, 4, 4]          --
│    └─ResnetBlock: 2-16                 [500, 128, 4, 4]          --
│    │    └─Sequential: 3-37             [500, 128, 4, 4]          295,424
│    │    └─Sequential: 3-38             [500, 128, 4, 4]          --
│    │    └─ReLU: 3-39                   [500, 128, 4, 4]          --
│    └─ResnetBlock: 2-17                 [500, 128, 4, 4]          --
│    │    └─Sequential: 3-40             [500, 128, 4, 4]          295,424
│    │    └─Sequential: 3-41             [500, 128, 4, 4]          --
│    │    └─ReLU: 3-42                   [500, 128, 4, 4]          --
│    └─ResnetBlock: 2-18                 [500, 128, 4, 4]          --
│    │    └─Sequential: 3-43             [500, 128, 4, 4]          295,424
│    │    └─Sequential: 3-44             [500, 128, 4, 4]          --
│    │    └─ReLU: 3-45                   [500, 128, 4, 4]          --
├─AdaptiveAvgPool2d: 1-5                 [500, 128, 1, 1]          --
├─Sequential: 1-6                        [500, 32]                 --
│    └─Flatten: 2-19                     [500, 128]                --
│    └─Linear: 2-20                      [500, 32]                 4,128
==========================================================================================
Total params: 1,858,864
Trainable params: 1,858,864
Non-trainable params: 0
Total mult-adds (G): 34.04
==========================================================================================
Input size (MB): 6.14
Forward/backward pass size (MB): 1392.77
Params size (MB): 7.44
Estimated Total Size (MB): 1406.35
…
