Resnet을 논문의 32 사이즈로 설정

C:\Users\kimJuhwan\anaconda3\envs\pytorch\python.exe E:\github\simclrExe\main.py
Files already downloaded and verified
Files already downloaded and verified
===============================================================================================
Layer (type:depth-idx)                        Output Shape              Param #
===============================================================================================
Sequential                                    [512, 32]                 --
├─Resnet: 1-1                                 [512, 32]                 --
│    └─Sequential: 2-1                        [512, 16, 32, 32]         --
│    │    └─Conv2d: 3-1                       [512, 16, 32, 32]         432
│    │    └─BatchNorm2d: 3-2                  [512, 16, 32, 32]         32
│    │    └─ReLU: 3-3                         [512, 16, 32, 32]         --
│    └─Sequential: 2-2                        [512, 32, 16, 16]         --
│    │    └─ResnetBlock: 3-4                  [512, 32, 16, 16]         14,528
│    │    └─ResnetBlock: 3-5                  [512, 32, 16, 16]         18,560
│    │    └─ResnetBlock: 3-6                  [512, 32, 16, 16]         18,560
│    │    └─ResnetBlock: 3-7                  [512, 32, 16, 16]         18,560
│    │    └─ResnetBlock: 3-8                  [512, 32, 16, 16]         18,560
│    └─Sequential: 2-3                        [512, 64, 8, 8]           --
│    │    └─ResnetBlock: 3-9                  [512, 64, 8, 8]           57,728
│    │    └─ResnetBlock: 3-10                 [512, 64, 8, 8]           73,984
│    │    └─ResnetBlock: 3-11                 [512, 64, 8, 8]           73,984
│    │    └─ResnetBlock: 3-12                 [512, 64, 8, 8]           73,984
│    │    └─ResnetBlock: 3-13                 [512, 64, 8, 8]           73,984
│    └─Sequential: 2-4                        [512, 128, 4, 4]          --
│    │    └─ResnetBlock: 3-14                 [512, 128, 4, 4]          230,144
│    │    └─ResnetBlock: 3-15                 [512, 128, 4, 4]          295,424
│    │    └─ResnetBlock: 3-16                 [512, 128, 4, 4]          295,424
│    │    └─ResnetBlock: 3-17                 [512, 128, 4, 4]          295,424
│    │    └─ResnetBlock: 3-18                 [512, 128, 4, 4]          295,424
│    └─AdaptiveAvgPool2d: 2-5                 [512, 128, 1, 1]          --
│    └─Sequential: 2-6                        [512, 32]                 --
│    │    └─Flatten: 3-19                     [512, 128]                --
│    │    └─Linear: 3-20                      [512, 32]                 4,128
├─SimpleMLP: 1-2                              [512, 32]                 --
│    └─Linear: 2-7                            [512, 32]                 1,056
│    └─ReLU: 2-8                              [512, 32]                 --
===============================================================================================
Total params: 1,859,920
Trainable params: 1,859,920
Non-trainable params: 0
Total mult-adds (G): 34.86
===============================================================================================
Input size (MB): 6.29
Forward/backward pass size (MB): 1426.33
Params size (MB): 7.44
Estimated Total Size (MB): 1440.06
…
