왜곡 이미지에도 이미지 정규화 적용

C:\Users\kimJuhwan\anaconda3\envs\pytorch\python.exe E:\github\simclrExe\main.py
Files already downloaded and verified
Files already downloaded and verified
===============================================================================================
Layer (type:depth-idx)                        Output Shape              Param #
===============================================================================================
Sequential                                    [512, 32]                 --
├─Resnet: 1-1                                 [512, 32]                 --
│    └─Conv2d: 2-1                            [512, 64, 16, 16]         9,408
│    └─Sequential: 2-2                        [512, 64, 8, 8]           --
│    │    └─MaxPool2d: 3-1                    [512, 64, 8, 8]           --
│    │    └─ResnetBlock: 3-2                  [512, 64, 8, 8]           73,984
│    │    └─ResnetBlock: 3-3                  [512, 64, 8, 8]           73,984
│    └─Sequential: 2-3                        [512, 128, 8, 8]          --
│    │    └─ResnetBlock: 3-4                  [512, 128, 8, 8]          230,144
│    │    └─ResnetBlock: 3-5                  [512, 128, 8, 8]          295,424
│    │    └─ResnetBlock: 3-6                  [512, 128, 8, 8]          295,424
│    └─AdaptiveAvgPool2d: 2-4                 [512, 128, 1, 1]          --
│    └─Sequential: 2-5                        [512, 32]                 --
│    │    └─Flatten: 3-7                      [512, 128]                --
│    │    └─Linear: 3-8                       [512, 32]                 4,128
├─SimpleMLP: 1-2                              [512, 32]                 --
│    └─Linear: 2-6                            [512, 32]                 1,056
│    └─ReLU: 2-7                              [512, 32]                 --
===============================================================================================
Total params: 983,552
Trainable params: 983,552
Non-trainable params: 0
Total mult-adds (G): 32.91
===============================================================================================
Input size (MB): 6.29
Forward/backward pass size (MB): 671.35
Params size (MB): 3.93
Estimated Total Size (MB): 681.58
…
