C:\Users\kimJuhwan\anaconda3\envs\pytorch\python.exe E:\github\simclrExe\main.py
Files already downloaded and verified
Files already downloaded and verified
==========================================================================================
Layer (type:depth-idx)                   Output Shape              Param #
==========================================================================================
Resnet                                   [1000, 32]                --
├─Sequential: 1-1                        [1000, 16, 32, 32]        --
│    └─Conv2d: 2-1                       [1000, 16, 32, 32]        432
│    └─BatchNorm2d: 2-2                  [1000, 16, 32, 32]        32
│    └─ReLU: 2-3                         [1000, 16, 32, 32]        --
├─Sequential: 1-2                        [1000, 32, 16, 16]        --
│    └─ResnetBlock: 2-4                  [1000, 32, 16, 16]        --
│    │    └─Sequential: 3-1              [1000, 32, 16, 16]        13,952
│    │    └─Sequential: 3-2              [1000, 32, 16, 16]        576
│    │    └─ReLU: 3-3                    [1000, 32, 16, 16]        --
│    └─ResnetBlock: 2-5                  [1000, 32, 16, 16]        --
│    │    └─Sequential: 3-4              [1000, 32, 16, 16]        18,560
│    │    └─Sequential: 3-5              [1000, 32, 16, 16]        --
│    │    └─ReLU: 3-6                    [1000, 32, 16, 16]        --
│    └─ResnetBlock: 2-6                  [1000, 32, 16, 16]        --
│    │    └─Sequential: 3-7              [1000, 32, 16, 16]        18,560
│    │    └─Sequential: 3-8              [1000, 32, 16, 16]        --
│    │    └─ReLU: 3-9                    [1000, 32, 16, 16]        --
│    └─ResnetBlock: 2-7                  [1000, 32, 16, 16]        --
│    │    └─Sequential: 3-10             [1000, 32, 16, 16]        18,560
│    │    └─Sequential: 3-11             [1000, 32, 16, 16]        --
│    │    └─ReLU: 3-12                   [1000, 32, 16, 16]        --
│    └─ResnetBlock: 2-8                  [1000, 32, 16, 16]        --
│    │    └─Sequential: 3-13             [1000, 32, 16, 16]        18,560
│    │    └─Sequential: 3-14             [1000, 32, 16, 16]        --
│    │    └─ReLU: 3-15                   [1000, 32, 16, 16]        --
├─Sequential: 1-3                        [1000, 64, 8, 8]          --
│    └─ResnetBlock: 2-9                  [1000, 64, 8, 8]          --
│    │    └─Sequential: 3-16             [1000, 64, 8, 8]          55,552
│    │    └─Sequential: 3-17             [1000, 64, 8, 8]          2,176
│    │    └─ReLU: 3-18                   [1000, 64, 8, 8]          --
│    └─ResnetBlock: 2-10                 [1000, 64, 8, 8]          --
│    │    └─Sequential: 3-19             [1000, 64, 8, 8]          73,984
│    │    └─Sequential: 3-20             [1000, 64, 8, 8]          --
│    │    └─ReLU: 3-21                   [1000, 64, 8, 8]          --
│    └─ResnetBlock: 2-11                 [1000, 64, 8, 8]          --
│    │    └─Sequential: 3-22             [1000, 64, 8, 8]          73,984
│    │    └─Sequential: 3-23             [1000, 64, 8, 8]          --
│    │    └─ReLU: 3-24                   [1000, 64, 8, 8]          --
│    └─ResnetBlock: 2-12                 [1000, 64, 8, 8]          --
│    │    └─Sequential: 3-25             [1000, 64, 8, 8]          73,984
│    │    └─Sequential: 3-26             [1000, 64, 8, 8]          --
│    │    └─ReLU: 3-27                   [1000, 64, 8, 8]          --
│    └─ResnetBlock: 2-13                 [1000, 64, 8, 8]          --
│    │    └─Sequential: 3-28             [1000, 64, 8, 8]          73,984
│    │    └─Sequential: 3-29             [1000, 64, 8, 8]          --
│    │    └─ReLU: 3-30                   [1000, 64, 8, 8]          --
├─Sequential: 1-4                        [1000, 128, 4, 4]         --
│    └─ResnetBlock: 2-14                 [1000, 128, 4, 4]         --
│    │    └─Sequential: 3-31             [1000, 128, 4, 4]         221,696
│    │    └─Sequential: 3-32             [1000, 128, 4, 4]         8,448
│    │    └─ReLU: 3-33                   [1000, 128, 4, 4]         --
│    └─ResnetBlock: 2-15                 [1000, 128, 4, 4]         --
│    │    └─Sequential: 3-34             [1000, 128, 4, 4]         295,424
│    │    └─Sequential: 3-35             [1000, 128, 4, 4]         --
│    │    └─ReLU: 3-36                   [1000, 128, 4, 4]         --
│    └─ResnetBlock: 2-16                 [1000, 128, 4, 4]         --
│    │    └─Sequential: 3-37             [1000, 128, 4, 4]         295,424
│    │    └─Sequential: 3-38             [1000, 128, 4, 4]         --
│    │    └─ReLU: 3-39                   [1000, 128, 4, 4]         --
│    └─ResnetBlock: 2-17                 [1000, 128, 4, 4]         --
│    │    └─Sequential: 3-40             [1000, 128, 4, 4]         295,424
│    │    └─Sequential: 3-41             [1000, 128, 4, 4]         --
│    │    └─ReLU: 3-42                   [1000, 128, 4, 4]         --
│    └─ResnetBlock: 2-18                 [1000, 128, 4, 4]         --
│    │    └─Sequential: 3-43             [1000, 128, 4, 4]         295,424
│    │    └─Sequential: 3-44             [1000, 128, 4, 4]         --
│    │    └─ReLU: 3-45                   [1000, 128, 4, 4]         --
├─AdaptiveAvgPool2d: 1-5                 [1000, 128, 1, 1]         --
├─Sequential: 1-6                        [1000, 32]                --
│    └─Flatten: 2-19                     [1000, 128]               --
│    └─Linear: 2-20                      [1000, 32]                4,128
==========================================================================================
Total params: 1,858,864
Trainable params: 1,858,864
Non-trainable params: 0
Total mult-adds (G): 68.08
==========================================================================================
Input size (MB): 12.29
Forward/backward pass size (MB): 2785.54
Params size (MB): 7.44
Estimated Total Size (MB): 2805.26
…
