C:\Users\kimJuhwan\anaconda3\envs\pytorch\python.exe E:\github\simclrExe\main_correct.py
Files already downloaded and verified
Files already downloaded and verified
  0%|          | 0/98 [00:00<?, ?batch/s]===============================================================================================
Layer (type:depth-idx)                        Output Shape              Param #
===============================================================================================
SimCLR                                        [512, 512]                --
├─ResNet: 1-1                                 [512, 512]                --
│    └─Conv2d: 2-1                            [512, 64, 32, 32]         1,728
│    └─BatchNorm2d: 2-2                       [512, 64, 32, 32]         128
│    └─ReLU: 2-3                              [512, 64, 32, 32]         --
│    └─Identity: 2-4                          [512, 64, 32, 32]         --
│    └─Sequential: 2-5                        [512, 64, 32, 32]         --
│    │    └─BasicBlock: 3-1                   [512, 64, 32, 32]         73,984
│    │    └─BasicBlock: 3-2                   [512, 64, 32, 32]         73,984
│    └─Sequential: 2-6                        [512, 128, 16, 16]        --
│    │    └─BasicBlock: 3-3                   [512, 128, 16, 16]        230,144
│    │    └─BasicBlock: 3-4                   [512, 128, 16, 16]        295,424
│    └─Sequential: 2-7                        [512, 256, 8, 8]          --
│    │    └─BasicBlock: 3-5                   [512, 256, 8, 8]          919,040
│    │    └─BasicBlock: 3-6                   [512, 256, 8, 8]          1,180,672
│    └─Sequential: 2-8                        [512, 512, 4, 4]          --
│    │    └─BasicBlock: 3-7                   [512, 512, 4, 4]          3,673,088
│    │    └─BasicBlock: 3-8                   [512, 512, 4, 4]          4,720,640
│    └─AdaptiveAvgPool2d: 2-9                 [512, 512, 1, 1]          --
│    └─Identity: 2-10                         [512, 512]                --
├─Sequential: 1-2                             [512, 128]                --
│    └─Linear: 2-11                           [512, 512]                262,144
│    └─ReLU: 2-12                             [512, 512]                --
│    └─Linear: 2-13                           [512, 128]                65,536
===============================================================================================
Total params: 11,496,512
Trainable params: 11,496,512
Non-trainable params: 0
Total mult-adds (Units.GIGABYTES): 284.55
===============================================================================================
Input size (MB): 6.29
Forward/backward pass size (MB): 5035.79
Params size (MB): 45.99
Estimated Total Size (MB): 5088.06
…
